checkpoints/network.pt (torch, 312196 bytes, 112 tensors)

tabnet.initial_bn.weight f4 [768]
000000 00 00 80 3f 00 00 80 3f 00 00 80 3f 00 00 80 3f
       1.0 1.0 1.0 1.0
000010 00 00 80 3f 00 00 80 3f 00 00 80 3f 00 00 80 3f
       1.0 1.0 1.0 1.0
000020 00 00 80 3f 00 00 80 3f 00 00 80 3f 00 00 80 3f
       1.0 1.0 1.0 1.0
000030 00 00 80 3f 00 00 80 3f 00 00 80 3f 00 00 80 3f
       1.0 1.0 1.0 1.0
000040 00 00 80 3f 00 00 80 3f 00 00 80 3f 00 00 80 3f
       1.0 1.0 1.0 1.0
000050 00 00 80 3f 00 00 80 3f 00 00 80 3f 00 00 80 3f
       1.0 1.0 1.0 1.0
000060 00 00 80 3f 00 00 80 3f 00 00 80 3f 00 00 80 3f
       1.0 1.0 1.0 1.0
000070 00 00 80 3f 00 00 80 3f 00 00 80 3f 00 00 80 3f
       1.0 1.0 1.0 1.0
000080 00 00 80 3f 00 00 80 3f 00 00 80 3f 00 00 80 3f
       1.0 1.0 1.0 1.0
000090 00 00 80 3f 00 00 80 3f 00 00 80 3f 00 00 80 3f
       1.0 1.0 1.0 1.0
0000a0 00 00 80 3f 00 00 80 3f 00 00 80 3f 00 00 80 3f
       1.0 1.0 1.0 1.0
0000b0 00 00 80 3f 00 00 80 3f 00 00 80 3f 00 00 80 3f
       1.0 1.0 1.0 1.0
0000c0 00 00 80 3f 00 00 80 3f 00 00 80 3f 00 00 80 3f
       1.0 1.0 1.0 1.0
0000d0 00 00 80 3f 00 00 80 3f 00 00 80 3f 00 00 80 3f
       1.0 1.0 1.0 1.0
0000e0 00 00 80 3f 00 00 80 3f 00 00 80 3f 00 00 80 3f
       1.0 1.0 1.0 1.0
0000f0 00 00 80 3f 00 00 80 3f 00 00 80 3f 00 00 80 3f
       1.0 1.0 1.0 1.0
000100 00 00 80 3f 00 00 80 3f 00 00 80 3f 00 00 80 3f
       1.0 1.0 1.0 1.0
000110 00 00 80 3f 00 00 80 3f 00 00 80 3f 00 00 80 3f
       1.0 1.0 1.0 1.0
000120 00 00 80 3f 00 00 80 3f 00 00 80 3f 00 00 80 3f
       1.0 1.0 1.0 1.0
000130 00 00 80 3f 00 00 80 3f 00 00 80 3f 00 00 80 3f
       1.0 1.0 1.0 1.0
000140 00 00 80 3f 00 00 80 3f 00 00 80 3f 00 00 80 3f
       1.0 1.0 1.0 1.0
000150 00 00 80 3f 00 00 80 3f 00 00 80 3f 00 00 80 3f
       1.0 1.0 1.0 1.0
000160 00 00 80 3f 00 00 80 3f 00 00 80 3f 00 00 80 3f
       1.0 1.0 1.0 1.0
000170 00 00 80 3f 00 00 80 3f 00 00 80 3f 00 00 80 3f
       1.0 1.0 1.0 1.0
000180 00 00 80 3f 00 00 80 3f 00 00 80 3f 00 00 80 3f
       1.0 1.0 1.0 1.0
000190 00 00 80 3f 00 00 80 3f 00 00 80 3f 00 00 80 3f
       1.0 1.0 1.0 1.0
0001a0 00 00 80 3f 00 00 80 3f 00 00 80 3f 00 00 80 3f
       1.0 1.0 1.0 1.0
0001b0 00 00 80 3f 00 00 80 3f 00 00 80 3f 00 00 80 3f
       1.0 1.0 1.0 1.0
0001c0 00 00 80 3f 00 00 80 3f 00 00 80 3f 00 00 80 3f
       1.0 1.0 1.0 1.0
0001d0 00 00 80 3f 00 00 80 3f 00 00 80 3f 00 00 80 3f
       1.0 1.0 1.0 1.0
0001e0 00 00 80 3f 00 00 80 3f 00 00 80 3f 00 00 80 3f
       1.0 1.0 1.0 1.0
0001f0 00 00 80 3f 00 00 80 3f 00 00 80 3f 00 00 80 3f
       1.0 1.0 1.0 1.0
000200 00 00 80 3f 00 00 80 3f 00 00 80 3f 00 00 80 3f
       1.0 1.0 1.0 1.0
000210 00 00 80 3f 00 00 80 3f 00 00 80 3f 00 00 80 3f
       1.0 1.0 1.0 1.0
000220 00 00 80 3f 00 00 80 3f 00 00 80 3f 00 00 80 3f
       1.0 1.0 1.0 1.0
000230 00 00 80 3f 00 00 80 3f 00 00 80 3f 00 00 80 3f
       1.0 1.0 1.0 1.0
000240 00 00 80 3f 00 00 80 3f 00 00 80 3f 00 00 80 3f
       1.0 1.0 1.0 1.0
000250 00 00 80 3f 00 00 80 3f 00 00 80 3f 00 00 80 3f
       1.0 1.0 1.0 1.0
000260 00 00 80 3f 00 00 80 3f 00 00 80 3f 00 00 80 3f
       1.0 1.0 1.0 1.0
000270 00 00 80 3f 00 00 80 3f 00 00 80 3f 00 00 80 3f
       1.0 1.0 1.0 1.0
000280 00 00 80 3f 00 00 80 3f 00 00 80 3f 00 00 80 3f
       1.0 1.0 1.0 1.0
000290 00 00 80 3f 00 00 80 3f 00 00 80 3f 00 00 80 3f
       1.0 1.0 1.0 1.0
0002a0 00 00 80 3f 00 00 80 3f 00 00 80 3f 00 00 80 3f
       1.0 1.0 1.0 1.0
0002b0 00 00 80 3f 00 00 80 3f 00 00 80 3f 00 00 80 3f
       1.0 1.0 1.0 1.0
0002c0 00 00 80 3f 00 00 80 3f 00 00 80 3f 00 00 80 3f
       1.0 1.0 1.0 1.0
0002d0 00 00 80 3f 00 00 80 3f 00 00 80 3f 00 00 80 3f
       1.0 1.0 1.0 1.0
0002e0 00 00 80 3f 00 00 80 3f 00 00 80 3f 00 00 80 3f
       1.0 1.0 1.0 1.0
0002f0 00 00 80 3f 00 00 80 3f 00 00 80 3f 00 00 80 3f
       1.0 1.0 1.0 1.0
000300 00 00 80 3f 00 00 80 3f 00 00 80 3f 00 00 80 3f
       1.0 1.0 1.0 1.0
000310 00 00 80 3f 00 00 80 3f 00 00 80 3f 00 00 80 3f
       1.0 1.0 1.0 1.0
000320 00 00 80 3f 00 00 80 3f 00 00 80 3f 00 00 80 3f
       1.0 1.0 1.0 1.0
000330 00 00 80 3f 00 00 80 3f 00 00 80 3f 00 00 80 3f
       1.0 1.0 1.0 1.0
000340 00 00 80 3f 00 00 80 3f 00 00 80 3f 00 00 80 3f
       1.0 1.0 1.0 1.0
000350 00 00 80 3f 00 00 80 3f 00 00 80 3f 00 00 80 3f
       1.0 1.0 1.0 1.0
000360 00 00 80 3f 00 00 80 3f 00 00 80 3f 00 00 80 3f
       1.0 1.0 1.0 1.0
000370 00 00 80 3f 00 00 80 3f 00 00 80 3f 00 00 80 3f
       1.0 1.0 1.0 1.0
000380 00 00 80 3f 00 00 80 3f 00 00 80 3f 00 00 80 3f
       1.0 1.0 1.0 1.0
000390 00 00 80 3f 00 00 80 3f 00 00 80 3f 00 00 80 3f
       1.0 1.0 1.0 1.0
0003a0 00 00 80 3f 00 00 80 3f 00 00 80 3f 00 00 80 3f
       1.0 1.0 1.0 1.0
0003b0 00 00 80 3f 00 00 80 3f 00 00 80 3f 00 00 80 3f
       1.0 1.0 1.0 1.0
0003c0 00 00 80 3f 00 00 80 3f 00 00 80 3f 00 00 80 3f
       1.0 1.0 1.0 1.0
0003d0 00 00 80 3f 00 00 80 3f 00 00 80 3f 00 00 80 3f
       1.0 1.0 1.0 1.0
0003e0 00 00 80 3f 00 00 80 3f 00 00 80 3f 00 00 80 3f
       1.0 1.0 1.0 1.0
0003f0 00 00 80 3f 00 00 80 3f 00 00 80 3f 00 00 80 3f
       1.0 1.0 1.0 1.0

tabnet.initial_bn.bias f4 [768]
000000 00 00 00 00 00 00 00 00 00 00 00 00 00 00 00 00
       0.0 0.0 0.0 0.0
000010 00 00 00 00 00 00 00 00 00 00 00 00 00 00 00 00
       0.0 0.0 0.0 0.0
000020 00 00 00 00 00 00 00 00 00 00 00 00 00 00 00 00
       0.0 0.0 0.0 0.0
000030 00 00 00 00 00 00 00 00 00 00 00 00 00 00 00 00
       0.0 0.0 0.0 0.0
000040 00 00 00 00 00 00 00 00 00 00 00 00 00 00 00 00
       0.0 0.0 0.0 0.0
000050 00 00 00 00 00 00 00 00 00 00 00 00 00 00 00 00
       0.0 0.0 0.0 0.0
000060 00 00 00 00 00 00 00 00 00 00 00 00 00 00 00 00
       0.0 0.0 0.0 0.0
000070 00 00 00 00 00 00 00 00 00 00 00 00 00 00 00 00
       0.0 0.0 0.0 0.0
000080 00 00 00 00 00 00 00 00 00 00 00 00 00 00 00 00
       0.0 0.0 0.0 0.0
000090 00 00 00 00 00 00 00 00 00 00 00 00 00 00 00 00
       0.0 0.0 0.0 0.0
0000a0 00 00 00 00 00 00 00 00 00 00 00 00 00 00 00 00
       0.0 0.0 0.0 0.0
0000b0 00 00 00 00 00 00 00 00 00 00 00 00 00 00 00 00
       0.0 0.0 0.0 0.0
0000c0 00 00 00 00 00 00 00 00 00 00 00 00 00 00 00 00
       0.0 0.0 0.0 0.0
0000d0 00 00 00 00 00 00 00 00 00 00 00 00 00 00 00 00
       0.0 0.0 0.0 0.0
0000e0 00 00 00 00 00 00 00 00 00 00 00 00 00 00 00 00
       0.0 0.0 0.0 0.0
0000f0 00 00 00 00 00 00 00 00 00 00 00 00 00 00 00 00
       0.0 0.0 0.0 0.0
000100 00 00 00 00 00 00 00 00 00 00 00 00 00 00 00 00
       0.0 0.0 0.0 0.0
000110 00 00 00 00 00 00 00 00 00 00 00 00 00 00 00 00
       0.0 0.0 0.0 0.0
000120 00 00 00 00 00 00 00 00 00 00 00 00 00 00 00 00
       0.0 0.0 0.0 0.0
000130 00 00 00 00 00 00 00 00 00 00 00 00 00 00 00 00
       0.0 0.0 0.0 0.0
000140 00 00 00 00 00 00 00 00 00 00 00 00 00 00 00 00
       0.0 0.0 0.0 0.0
000150 00 00 00 00 00 00 00 00 00 00 00 00 00 00 00 00
       0.0 0.0 0.0 0.0
000160 00 00 00 00 00 00 00 00 00 00 00 00 00 00 00 00
       0.0 0.0 0.0 0.0
000170 00 00 00 00 00 00 00 00 00 00 00 00 00 00 00 00
       0.0 0.0 0.0 0.0
000180 00 00 00 00 00 00 00 00 00 00 00 00 00 00 00 00
       0.0 0.0 0.0 0.0
000190 00 00 00 00 00 00 00 00 00 00 00 00 00 00 00 00
       0.0 0.0 0.0 0.0
0001a0 00 00 00 00 00 00 00 00 00 00 00 00 00 00 00 00
       0.0 0.0 0.0 0.0
0001b0 00 00 00 00 00 00 00 00 00 00 00 00 00 00 00 00
       0.0 0.0 0.0 0.0
0001c0 00 00 00 00 00 00 00 00 00 00 00 00 00 00 00 00
       0.0 0.0 0.0 0.0
0001d0 00 00 00 00 00 00 00 00 00 00 00 00 00 00 00 00
       0.0 0.0 0.0 0.0
0001e0 00 00 00 00 00 00 00 00 00 00 00 00 00 00 00 00
       0.0 0.0 0.0 0.0
0001f0 00 00 00 00 00 00 00 00 00 00 00 00 00 00 00 00
       0.0 0.0 0.0 0.0
000200 00 00 00 00 00 00 00 00 00 00 00 00 00 00 00 00
       0.0 0.0 0.0 0.0
000210 00 00 00 00 00 00 00 00 00 00 00 00 00 00 00 00
       0.0 0.0 0.0 0.0
000220 00 00 00 00 00 00 00 00 00 00 00 00 00 00 00 00
       0.0 0.0 0.0 0.0
000230 00 00 00 00 00 00 00 00 00 00 00 00 00 00 00 00
       0.0 0.0 0.0 0.0
000240 00 00 00 00 00 00 00 00 00 00 00 00 00 00 00 00
       0.0 0.0 0.0 0.0
000250 00 00 00 00 00 00 00 00 00 00 00 00 00 00 00 00
       0.0 0.0 0.0 0.0
000260 00 00 00 00 00 00 00 00 00 00 00 00 00 00 00 00
       0.0 0.0 0.0 0.0
000270 00 00 00 00 00 00 00 00 00 00 00 00 00 00 00 00
       0.0 0.0 0.0 0.0
000280 00 00 00 00 00 00 00 00 00 00 00 00 00 00 00 00
       0.0 0.0 0.0 0.0
000290 00 00 00 00 00 00 00 00 00 00 00 00 00 00 00 00
       0.0 0.0 0.0 0.0
0002a0 00 00 00 00 00 00 00 00 00 00 00 00 00 00 00 00
       0.0 0.0 0.0 0.0
0002b0 00 00 00 00 00 00 00 00 00 00 00 00 00 00 00 00
       0.0 0.0 0.0 0.0
0002c0 00 00 00 00 00 00 00 00 00 00 00 00 00 00 00 00
       0.0 0.0 0.0 0.0
0002d0 00 00 00 00 00 00 00 00 00 00 00 00 00 00 00 00
       0.0 0.0 0.0 0.0
0002e0 00 00 00 00 00 00 00 00 00 00 00 00 00 00 00 00
       0.0 0.0 0.0 0.0
0002f0 00 00 00 00 00 00 00 00 00 00 00 00 00 00 00 00
       0.0 0.0 0.0 0.0
000300 00 00 00 00 00 00 00 00 00 00 00 00 00 00 00 00
       0.0 0.0 0.0 0.0
000310 00 00 00 00 00 00 00 00 00 00 00 00 00 00 00 00
       0.0 0.0 0.0 0.0
000320 00 00 00 00 00 00 00 00 00 00 00 00 00 00 00 00
       0.0 0.0 0.0 0.0
000330 00 00 00 00 00 00 00 00 00 00 00 00 00 00 00 00
       0.0 0.0 0.0 0.0
000340 00 00 00 00 00 00 00 00 00 00 00 00 00 00 00 00
       0.0 0.0 0.0 0.0
000350 00 00 00 00 00 00 00 00 00 00 00 00 00 00 00 00
       0.0 0.0 0.0 0.0
000360 00 00 00 00 00 00 00 00 00 00 00 00 00 00 00 00
       0.0 0.0 0.0 0.0
000370 00 00 00 00 00 00 00 00 00 00 00 00 00 00 00 00
       0.0 0.0 0.0 0.0
000380 00 00 00 00 00 00 00 00 00 00 00 00 00 00 00 00
       0.0 0.0 0.0 0.0
000390 00 00 00 00 00 00 00 00 00 00 00 00 00 00 00 00
       0.0 0.0 0.0 0.0
0003a0 00 00 00 00 00 00 00 00 00 00 00 00 00 00 00 00
       0.0 0.0 0.0 0.0
0003b0 00 00 00 00 00 00 00 00 00 00 00 00 00 00 00 00
       0.0 0.0 0.0 0.0
0003c0 00 00 00 00 00 00 00 00 00 00 00 00 00 00 00 00
       0.0 0.0 0.0 0.0
0003d0 00 00 00 00 00 00 00 00 00 00 00 00 00 00 00 00
       0.0 0.0 0.0 0.0
0003e0 00 00 00 00 00 00 00 00 00 00 00 00 00 00 00 00
       0.0 0.0 0.0 0.0
0003f0 00 00 00 00 00 00 00 00 00 00 00 00 00 00 00 00
       0.0 0.0 0.0 0.0

tabnet.initial_bn.running_mean f4 [768]
000000 00 00 00 00 00 00 00 00 00 00 00 00 00 00 00 00
       0.0 0.0 0.0 0.0
000010 00 00 00 00 00 00 00 00 00 00 00 00 00 00 00 00
       0.0 0.0 0.0 0.0
000020 00 00 00 00 00 00 00 00 00 00 00 00 00 00 00 00
       0.0 0.0 0.0 0.0
000030 00 00 00 00 00 00 00 00 00 00 00 00 00 00 00 00
       0.0 0.0 0.0 0.0
000040 00 00 00 00 00 00 00 00 00 00 00 00 00 00 00 00
       0.0 0.0 0.0 0.0
000050 00 00 00 00 00 00 00 00 00 00 00 00 00 00 00 00
       0.0 0.0 0.0 0.0
000060 00 00 00 00 00 00 00 00 00 00 00 00 00 00 00 00
       0.0 0.0 0.0 0.0
000070 00 00 00 00 00 00 00 00 00 00 00 00 00 00 00 00
       0.0 0.0 0.0 0.0
000080 00 00 00 00 00 00 00 00 00 00 00 00 00 00 00 00
       0.0 0.0 0.0 0.0
000090 00 00 00 00 00 00 00 00 00 00 00 00 00 00 00 00
       0.0 0.0 0.0 0.0
0000a0 00 00 00 00 00 00 00 00 00 00 00 00 00 00 00 00
       0.0 0.0 0.0 0.0
0000b0 00 00 00 00 00 00 00 00 00 00 00 00 00 00 00 00
       0.0 0.0 0.0 0.0
0000c0 00 00 00 00 00 00 00 00 00 00 00 00 00 00 00 00
       0.0 0.0 0.0 0.0
0000d0 00 00 00 00 00 00 00 00 00 00 00 00 00 00 00 00
       0.0 0.0 0.0 0.0
0000e0 00 00 00 00 00 00 00 00 00 00 00 00 00 00 00 00
       0.0 0.0 0.0 0.0
0000f0 00 00 00 00 00 00 00 00 00 00 00 00 00 00 00 00
       0.0 0.0 0.0 0.0
000100 00 00 00 00 00 00 00 00 00 00 00 00 00 00 00 00
       0.0 0.0 0.0 0.0
000110 00 00 00 00 00 00 00 00 00 00 00 00 00 00 00 00
       0.0 0.0 0.0 0.0
000120 00 00 00 00 00 00 00 00 00 00 00 00 00 00 00 00
       0.0 0.0 0.0 0.0
000130 00 00 00 00 00 00 00 00 00 00 00 00 00 00 00 00
       0.0 0.0 0.0 0.0
000140 00 00 00 00 00 00 00 00 00 00 00 00 00 00 00 00
       0.0 0.0 0.0 0.0
000150 00 00 00 00 00 00 00 00 00 00 00 00 00 00 00 00
       0.0 0.0 0.0 0.0
000160 00 00 00 00 00 00 00 00 00 00 00 00 00 00 00 00
       0.0 0.0 0.0 0.0
000170 00 00 00 00 00 00 00 00 00 00 00 00 00 00 00 00
       0.0 0.0 0.0 0.0
000180 00 00 00 00 00 00 00 00 00 00 00 00 00 00 00 00
       0.0 0.0 0.0 0.0
000190 00 00 00 00 00 00 00 00 00 00 00 00 00 00 00 00
       0.0 0.0 0.0 0.0
0001a0 00 00 00 00 00 00 00 00 00 00 00 00 00 00 00 00
       0.0 0.0 0.0 0.0
0001b0 00 00 00 00 00 00 00 00 00 00 00 00 00 00 00 00
       0.0 0.0 0.0 0.0
0001c0 00 00 00 00 00 00 00 00 00 00 00 00 00 00 00 00
       0.0 0.0 0.0 0.0
0001d0 00 00 00 00 00 00 00 00 00 00 00 00 00 00 00 00
       0.0 0.0 0.0 0.0
0001e0 00 00 00 00 00 00 00 00 00 00 00 00 00 00 00 00
       0.0 0.0 0.0 0.0
0001f0 00 00 00 00 00 00 00 00 00 00 00 00 00 00 00 00
       0.0 0.0 0.0 0.0
000200 00 00 00 00 00 00 00 00 00 00 00 00 00 00 00 00
       0.0 0.0 0.0 0.0
000210 00 00 00 00 00 00 00 00 00 00 00 00 00 00 00 00
       0.0 0.0 0.0 0.0
000220 00 00 00 00 00 00 00 00 00 00 00 00 00 00 00 00
       0.0 0.0 0.0 0.0
000230 00 00 00 00 00 00 00 00 00 00 00 00 00 00 00 00
       0.0 0.0 0.0 0.0
000240 00 00 00 00 00 00 00 00 00 00 00 00 00 00 00 00
       0.0 0.0 0.0 0.0
000250 00 00 00 00 00 00 00 00 00 00 00 00 00 00 00 00
       0.0 0.0 0.0 0.0
000260 00 00 00 00 00 00 00 00 00 00 00 00 00 00 00 00
       0.0 0.0 0.0 0.0
000270 00 00 00 00 00 00 00 00 00 00 00 00 00 00 00 00
       0.0 0.0 0.0 0.0
000280 00 00 00 00 00 00 00 00 00 00 00 00 00 00 00 00
       0.0 0.0 0.0 0.0
000290 00 00 00 00 00 00 00 00 00 00 00 00 00 00 00 00
       0.0 0.0 0.0 0.0
0002a0 00 00 00 00 00 00 00 00 00 00 00 00 00 00 00 00
       0.0 0.0 0.0 0.0
0002b0 00 00 00 00 00 00 00 00 00 00 00 00 00 00 00 00
       0.0 0.0 0.0 0.0
0002c0 00 00 00 00 00 00 00 00 00 00 00 00 00 00 00 00
       0.0 0.0 0.0 0.0
0002d0 00 00 00 00 00 00 00 00 00 00 00 00 00 00 00 00
       0.0 0.0 0.0 0.0
0002e0 00 00 00 00 00 00 00 00 00 00 00 00 00 00 00 00
       0.0 0.0 0.0 0.0
0002f0 00 00 00 00 00 00 00 00 00 00 00 00 00 00 00 00
       0.0 0.0 0.0 0.0
000300 00 00 00 00 00 00 00 00 00 00 00 00 00 00 00 00
       0.0 0.0 0.0 0.0
000310 00 00 00 00 00 00 00 00 00 00 00 00 00 00 00 00
       0.0 0.0 0.0 0.0
000320 00 00 00 00 00 00 00 00 00 00 00 00 00 00 00 00
       0.0 0.0 0.0 0.0
000330 00 00 00 00 00 00 00 00 00 00 00 00 00 00 00 00
       0.0 0.0 0.0 0.0
000340 00 00 00 00 00 00 00 00 00 00 00 00 00 00 00 00
       0.0 0.0 0.0 0.0
000350 00 00 00 00 00 00 00 00 00 00 00 00 00 00 00 00
       0.0 0.0 0.0 0.0
000360 00 00 00 00 00 00 00 00 00 00 00 00 00 00 00 00
       0.0 0.0 0.0 0.0
000370 00 00 00 00 00 00 00 00 00 00 00 00 00 00 00 00
       0.0 0.0 0.0 0.0
000380 00 00 00 00 00 00 00 00 00 00 00 00 00 00 00 00
       0.0 0.0 0.0 0.0
000390 00 00 00 00 00 00 00 00 00 00 00 00 00 00 00 00
       0.0 0.0 0.0 0.0
0003a0 00 00 00 00 00 00 00 00 00 00 00 00 00 00 00 00
       0.0 0.0 0.0 0.0
0003b0 00 00 00 00 00 00 00 00 00 00 00 00 00 00 00 00
       0.0 0.0 0.0 0.0
0003c0 00 00 00 00 00 00 00 00 00 00 00 00 00 00 00 00
       0.0 0.0 0.0 0.0
0003d0 00 00 00 00 00 00 00 00 00 00 00 00 00 00 00 00
       0.0 0.0 0.0 0.0
0003e0 00 00 00 00 00 00 00 00 00 00 00 00 00 00 00 00
       0.0 0.0 0.0 0.0
0003f0 00 00 00 00 00 00 00 00 00 00 00 00 00 00 00 00
       0.0 0.0 0.0 0.0

tabnet.initial_bn.running_var f4 [768]
000000 00 00 80 3f 00 00 80 3f 00 00 80 3f 00 00 80 3f
       1.0 1.0 1.0 1.0
000010 00 00 80 3f 00 00 80 3f 00 00 80 3f 00 00 80 3f
       1.0 1.0 1.0 1.0
000020 00 00 80 3f 00 00 80 3f 00 00 80 3f 00 00 80 3f
       1.0 1.0 1.0 1.0
000030 00 00 80 3f 00 00 80 3f 00 00 80 3f 00 00 80 3f
       1.0 1.0 1.0 1.0
000040 00 00 80 3f 00 00 80 3f 00 00 80 3f 00 00 80 3f
       1.0 1.0 1.0 1.0
000050 00 00 80 3f 00 00 80 3f 00 00 80 3f 00 00 80 3f
       1.0 1.0 1.0 1.0
000060 00 00 80 3f 00 00 80 3f 00 00 80 3f 00 00 80 3f
       1.0 1.0 1.0 1.0
000070 00 00 80 3f 00 00 80 3f 00 00 80 3f 00 00 80 3f
       1.0 1.0 1.0 1.0
000080 00 00 80 3f 00 00 80 3f 00 00 80 3f 00 00 80 3f
       1.0 1.0 1.0 1.0
000090 00 00 80 3f 00 00 80 3f 00 00 80 3f 00 00 80 3f
       1.0 1.0 1.0 1.0
0000a0 00 00 80 3f 00 00 80 3f 00 00 80 3f 00 00 80 3f
       1.0 1.0 1.0 1.0
0000b0 00 00 80 3f 00 00 80 3f 00 00 80 3f 00 00 80 3f
       1.0 1.0 1.0 1.0
0000c0 00 00 80 3f 00 00 80 3f 00 00 80 3f 00 00 80 3f
       1.0 1.0 1.0 1.0
0000d0 00 00 80 3f 00 00 80 3f 00 00 80 3f 00 00 80 3f
       1.0 1.0 1.0 1.0
0000e0 00 00 80 3f 00 00 80 3f 00 00 80 3f 00 00 80 3f
       1.0 1.0 1.0 1.0
0000f0 00 00 80 3f 00 00 80 3f 00 00 80 3f 00 00 80 3f
       1.0 1.0 1.0 1.0
000100 00 00 80 3f 00 00 80 3f 00 00 80 3f 00 00 80 3f
       1.0 1.0 1.0 1.0
000110 00 00 80 3f 00 00 80 3f 00 00 80 3f 00 00 80 3f
       1.0 1.0 1.0 1.0
000120 00 00 80 3f 00 00 80 3f 00 00 80 3f 00 00 80 3f
       1.0 1.0 1.0 1.0
000130 00 00 80 3f 00 00 80 3f 00 00 80 3f 00 00 80 3f
       1.0 1.0 1.0 1.0
000140 00 00 80 3f 00 00 80 3f 00 00 80 3f 00 00 80 3f
       1.0 1.0 1.0 1.0
000150 00 00 80 3f 00 00 80 3f 00 00 80 3f 00 00 80 3f
       1.0 1.0 1.0 1.0
000160 00 00 80 3f 00 00 80 3f 00 00 80 3f 00 00 80 3f
       1.0 1.0 1.0 1.0
000170 00 00 80 3f 00 00 80 3f 00 00 80 3f 00 00 80 3f
       1.0 1.0 1.0 1.0
000180 00 00 80 3f 00 00 80 3f 00 00 80 3f 00 00 80 3f
       1.0 1.0 1.0 1.0
000190 00 00 80 3f 00 00 80 3f 00 00 80 3f 00 00 80 3f
       1.0 1.0 1.0 1.0
0001a0 00 00 80 3f 00 00 80 3f 00 00 80 3f 00 00 80 3f
       1.0 1.0 1.0 1.0
0001b0 00 00 80 3f 00 00 80 3f 00 00 80 3f 00 00 80 3f
       1.0 1.0 1.0 1.0
0001c0 00 00 80 3f 00 00 80 3f 00 00 80 3f 00 00 80 3f
       1.0 1.0 1.0 1.0
0001d0 00 00 80 3f 00 00 80 3f 00 00 80 3f 00 00 80 3f
       1.0 1.0 1.0 1.0
0001e0 00 00 80 3f 00 00 80 3f 00 00 80 3f 00 00 80 3f
       1.0 1.0 1.0 1.0
0001f0 00 00 80 3f 00 00 80 3f 00 00 80 3f 00 00 80 3f
       1.0 1.0 1.0 1.0
000200 00 00 80 3f 00 00 80 3f 00 00 80 3f 00 00 80 3f
       1.0 1.0 1.0 1.0
000210 00 00 80 3f 00 00 80 3f 00 00 80 3f 00 00 80 3f
       1.0 1.0 1.0 1.0
000220 00 00 80 3f 00 00 80 3f 00 00 80 3f 00 00 80 3f
       1.0 1.0 1.0 1.0
000230 00 00 80 3f 00 00 80 3f 00 00 80 3f 00 00 80 3f
       1.0 1.0 1.0 1.0
000240 00 00 80 3f 00 00 80 3f 00 00 80 3f 00 00 80 3f
       1.0 1.0 1.0 1.0
000250 00 00 80 3f 00 00 80 3f 00 00 80 3f 00 00 80 3f
       1.0 1.0 1.0 1.0
000260 00 00 80 3f 00 00 80 3f 00 00 80 3f 00 00 80 3f
       1.0 1.0 1.0 1.0
000270 00 00 80 3f 00 00 80 3f 00 00 80 3f 00 00 80 3f
       1.0 1.0 1.0 1.0
000280 00 00 80 3f 00 00 80 3f 00 00 80 3f 00 00 80 3f
       1.0 1.0 1.0 1.0
000290 00 00 80 3f 00 00 80 3f 00 00 80 3f 00 00 80 3f
       1.0 1.0 1.0 1.0
0002a0 00 00 80 3f 00 00 80 3f 00 00 80 3f 00 00 80 3f
       1.0 1.0 1.0 1.0
0002b0 00 00 80 3f 00 00 80 3f 00 00 80 3f 00 00 80 3f
       1.0 1.0 1.0 1.0
0002c0 00 00 80 3f 00 00 80 3f 00 00 80 3f 00 00 80 3f
       1.0 1.0 1.0 1.0
0002d0 00 00 80 3f 00 00 80 3f 00 00 80 3f 00 00 80 3f
       1.0 1.0 1.0 1.0
0002e0 00 00 80 3f 00 00 80 3f 00 00 80 3f 00 00 80 3f
       1.0 1.0 1.0 1.0
0002f0 00 00 80 3f 00 00 80 3f 00 00 80 3f 00 00 80 3f
       1.0 1.0 1.0 1.0
000300 00 00 80 3f 00 00 80 3f 00 00 80 3f 00 00 80 3f
       1.0 1.0 1.0 1.0
000310 00 00 80 3f 00 00 80 3f 00 00 80 3f 00 00 80 3f
       1.0 1.0 1.0 1.0
000320 00 00 80 3f 00 00 80 3f 00 00 80 3f 00 00 80 3f
       1.0 1.0 1.0 1.0
000330 00 00 80 3f 00 00 80 3f 00 00 80 3f 00 00 80 3f
       1.0 1.0 1.0 1.0
000340 00 00 80 3f 00 00 80 3f 00 00 80 3f 00 00 80 3f
       1.0 1.0 1.0 1.0
000350 00 00 80 3f 00 00 80 3f 00 00 80 3f 00 00 80 3f
       1.0 1.0 1.0 1.0
000360 00 00 80 3f 00 00 80 3f 00 00 80 3f 00 00 80 3f
       1.0 1.0 1.0 1.0
000370 00 00 80 3f 00 00 80 3f 00 00 80 3f 00 00 80 3f
       1.0 1.0 1.0 1.0
000380 00 00 80 3f 00 00 80 3f 00 00 80 3f 00 00 80 3f
       1.0 1.0 1.0 1.0
000390 00 00 80 3f 00 00 80 3f 00 00 80 3f 00 00 80 3f
       1.0 1.0 1.0 1.0
0003a0 00 00 80 3f 00 00 80 3f 00 00 80 3f 00 00 80 3f
       1.0 1.0 1.0 1.0
0003b0 00 00 80 3f 00 00 80 3f 00 00 80 3f 00 00 80 3f
       1.0 1.0 1.0 1.0
0003c0 00 00 80 3f 00 00 80 3f 00 00 80 3f 00 00 80 3f
       1.0 1.0 1.0 1.0
0003d0 00 00 80 3f 00 00 80 3f 00 00 80 3f 00 00 80 3f
       1.0 1.0 1.0 1.0
0003e0 00 00 80 3f 00 00 80 3f 00 00 80 3f 00 00 80 3f
       1.0 1.0 1.0 1.0
0003f0 00 00 80 3f 00 00 80 3f 00 00 80 3f 00 00 80 3f
       1.0 1.0 1.0 1.0

tabnet.encoder.initial_bn.weight f4 [768]
000000 81 3f f6 3e dd c6 8b 3f 59 2a c5 3f db 96 a6 3e
       0.48095325 1.0920063 1.5403548 0.3253697
000010 aa f1 a8 3f ac 49 2a 3f 03 33 bd 3f bd c9 67 3e
       1.319875 0.66518664 1.4781193 0.22635551
000020 f5 5a cd 3f e5 ec 8c 3f 40 7c 74 3f ad e5 98 3f
       1.6043383 1.1009794 0.9550209 1.1945091
000030 6f 69 70 3f 84 9e c4 3f 4e 94 8f 3f 86 0a 5a 3f
       0.9391088 1.5360875 1.1217134 0.8517231
000040 68 ca 34 3f aa e7 d8 3e 67 3e c8 3f 9d 6a 17 3f
       0.7062135 0.42364246 1.5644044 0.59147054
000050 9d b5 3c 3e 6f 21 f1 3e 28 5e ba 3f 3c 39 a1 3f
       0.18428655 0.4709582 1.4559984 1.2595592
000060 1d fe b3 3e 02 b6 49 3f 10 54 24 3f 05 a9 27 3f
       0.3515481 0.78793347 0.6419077 0.6549228
000070 63 74 8c 3f 53 07 ce 3f 57 e8 b2 3f b5 fc fa 3f
       1.0973018 1.6095985 1.3977154 1.960837
000080 51 d1 4b 3f 1d 46 32 3f bd 8d 46 3f 79 98 8d 3f
       0.79616266 0.69638234 0.77560025 1.1062156
000090 f2 63 0e 3f 02 83 fa 3e 32 2d cd 3f bf 10 44 3f
       0.55621254 0.48928076 1.6029418 0.7658805
0000a0 ca 57 81 3f fe df 50 3f a6 ec 2b 3f 08 b1 5f 3f
       1.0104916 0.81591785 0.6715797 0.87379503
0000b0 73 ee 94 3f 3c 1b 19 3f 4f 8b 64 3f 5f e7 90 3f
       1.1635269 0.5980718 0.8927507 1.1320609
0000c0 ff a8 3c 3f 2c de 79 3f b6 d3 aa 3f 5d 1e e8 3e
       0.7369537 0.9760463 1.3345859 0.45335665
0000d0 26 33 3d 3f 97 eb a5 3f f8 38 38 3f 02 75 95 3f
       0.7390617 1.2962521 0.7196193 1.1676333
0000e0 a6 21 27 3f 9f b2 60 3f 38 31 8f 3f d5 68 3b 3f
       0.6528572 0.87772554 1.1186895 0.73206836
0000f0 fd 22 27 3f e6 94 a1 3e 71 cc 01 3f 08 ee 85 3f
       0.6528776 0.31558913 0.5070258 1.0463266
000100 01 32 b0 3f af de ab 3f 33 e2 96 3f 6f c3 8a 3f
       1.376526 1.3427333 1.178778 1.0840892
000110 80 c3 59 3f d4 fe 78 3f e2 1e e7 3f 5b d3 a6 3f
       0.85063934 0.97263837 1.80563 1.303325
000120 a5 47 c2 3f d7 91 7b 3f b0 b8 24 3f d2 72 5e 3f
       1.5178114 0.9826941 0.6434431 0.8689395
000130 09 41 4c 3f 73 d8 34 3f a0 4a 62 3f 87 63 6a 3f
       0.79786736 0.70642775 0.8839512 0.91558117
000140 a6 0f b4 3f cb 89 bb 3e 3c 3f 23 3f 76 b2 3a 3f
       1.4067276 0.36628565 0.63768363 0.7292856
000150 36 40 9e 3f f1 92 0d 3f e3 6e 28 3f 39 be 8d 3f
       1.2363346 0.5530234 0.657942 1.1073676
000160 e2 0c 73 3f fd a4 83 3f 31 b3 a4 3f 41 8c d0 3f
       0.9494153 1.0284725 1.2867185 1.6292802
000170 3a f6 d7 3e 2b b1 d8 3f 0a 75 1b 3e 4f 71 3d 3f
       0.42180043 1.6929067 0.15181366 0.7400102
000180 d0 c9 70 3f 2e 7d 4d 3f a9 b1 8d 3f 4b cc 17 40
       0.9405794 0.80269134 1.1069843 2.371844
000190 6e 8a cf 3f 7c e1 75 3f d5 d5 66 3f 62 a6 71 3f
       1.621412 0.96047187 0.9017003 0.94394505
0001a0 d9 1c 1b 3c 88 32 02 3f fc e7 16 3f 4d fc a5 3f
       0.009467327 0.50858355 0.5894773 1.2967621
0001b0 9e 80 17 3f f8 09 ea 3f 54 bc 3b 3f c0 1b 5e 3f
       0.5918063 1.8284292 0.7333424 0.86761093
0001c0 c3 b6 18 3f 02 3f 73 3f 9a f7 98 3f f0 58 1a 3f
       0.5965387 0.9501802 1.1950562 0.6029196
0001d0 c8 b3 bf 3f e5 13 b7 3f 88 66 09 3f 68 fd 19 3f
       1.497674 1.4302946 0.53672075 0.6015229
0001e0 26 64 9b 3f 1e a5 e8 3e 15 66 02 3f 1c 08 81 3f
       1.2139938 0.45438474 0.50937015 1.00806
0001f0 df 5a ad 3f a9 ed 27 3f aa ce 8b 3f 02 92 9b 3f
       1.3543357 0.65597016 1.0922444 1.2153933
000200 2b 0e 9d 3f ca be d4 3e 85 0c 77 3f 62 0e 29 3f
       1.2269949 0.4155181 0.9650348 0.6603757
000210 32 08 15 3f 61 1c 03 3f ff c4 cc 3f 6c 6d f3 3f
       0.5821563 0.5121518 1.5997618 1.9017768
000220 b1 79 0a 3e 81 bf 91 3e 03 f2 37 3f d3 eb 18 3f
       0.13522984 0.28466418 0.71853656 0.5973484
000230 63 d6 cc 3e dc 85 f6 3e 5f 41 cf 3d 81 7b 33 3f
       0.40007314 0.48149002 0.101198904 0.70110327
000240 e5 c4 9c 3f 27 ae 58 3f 8e 23 42 3f 4b 90 a9 3e
       1.2247587 0.84640735 0.758355 0.331179
000250 3a 6d cc 3f 10 10 3d 3f dc 07 12 3f df 58 fa 3c
       1.5970833 0.73852634 0.5704324 0.030559955
000260 f7 a7 0e 3f 52 10 4d 3f d2 5b 4b 3f 86 14 23 3f
       0.55725044 0.8010303 0.7943698 0.6370319
000270 7b 8e 6f 3f 46 c7 83 3f c9 12 9e 3f a2 8e bb 3f
       0.9357678 1.0295188 1.2349483 1.4652903
000280 ec 00 8c 3f 31 20 93 3f e1 c2 2c 3f 0f bb 89 3d
       1.0937781 1.1494199 0.6748486 0.06725132
000290 c3 8b 35 3f 5d e0 6f 3f 62 3d 91 3f ce 74 63 3f
       0.70916384 0.93701726 1.1346858 0.88850105
0002a0 7a 34 28 3f 14 13 a4 3f d9 31 3f 3f 41 68 dc 3f
       0.6570507 1.2818322 0.74685436 1.7219316
0002b0 61 78 ba 3f 5e 3b 2c 3f 99 d6 f7 3e 70 8c 0b 3f
       1.4567987 0.6727809 0.48405913 0.54511166
0002c0 95 a3 c2 3f ed 81 ef 3e ad 8d a6 3f 53 68 90 3f
       1.5206171 0.46778813 1.3011986 1.1281837
0002d0 1a 35 06 3f d8 04 26 3f 08 88 93 3f f2 5b 12 3f
       0.52424777 0.6485114 1.1525888 0.5717155
0002e0 9d 8e 25 3f 41 d1 ac 3f e5 bb 4c 3e fb de b2 3f
       0.64670736 1.3501359 0.19993551 1.3974298
0002f0 04 bc 78 3f 9b f7 0f 3f 98 bb 5a 3e 6a 78 15 3f
       0.9716189 0.5623719 0.21360624 0.5838686
000300 a5 8d 12 3f f0 f2 f4 3f 2d cd ef 3f 60 ef 8f 3e
       0.5724738 1.9136639 1.873449 0.28112316
000310 7d 6e 1f 40 54 47 5f 3f 96 e7 2e 3f 0e 3a 36 3e
       2.4911187 0.87218213 0.6832212 0.17795584
000320 30 44 68 3f 5b 12 80 3f d6 73 63 3f 1e 34 36 3f
       0.90729046 1.0005602 0.88848627 0.71173275
000330 fc 35 b7 3f a9 9a 20 3f 6b c0 b3 3f 69 99 60 3f
       1.431335 0.6273599 1.4043096 0.87734085
000340 60 3d 36 3f 64 43 3b 3f a1 5a 66 3f 35 cb 7d 3f
       0.711874 0.73149705 0.8998204 0.99138194
000350 d2 38 ca 3f 86 71 f0 3f 0f f0 c4 3f 3a a9 69 3f
       1.579859 1.8784645 1.538576 0.91273844
000360 33 df ec 3d 71 41 d0 3f c5 7f 62 3e 40 3f 49 3f
       0.11566009 1.6269971 0.22119053 0.78612137
000370 3a 6f a2 3f 18 1b 95 3f 79 a3 b1 3f b5 93 20 3f
       1.2690194 1.1648893 1.3878013 0.62725383
000380 cc bb 45 3f ea b6 88 3d 71 6e 91 3f 4c 4b 8f 3f
       0.7723968 0.06675513 1.1361829 1.1194854
000390 98 ff c3 3e 52 e0 93 3f a1 6d 7e 3f e8 b9 28 3f
       0.3828094 1.1552832 0.9938603 0.6590867
0003a0 97 45 2b 3f 04 bf c0 3f 42 85 8f 3f 7c b9 89 3f
       0.6690306 1.5058293 1.1212542 1.075973
0003b0 72 0c f8 3e 6a 6c 8b 3f ba 78 a7 3f 0a a4 4b 3f
       0.48446995 1.089246 1.3083718 0.7954718
0003c0 6a cd 5d 3f c7 38 4f 3f 29 fb 84 3f 17 fc bc 3f
       0.8664156 0.8094601 1.0389148 1.4764432
0003d0 3f cd 90 3f 62 8a 85 3f 17 80 2c 3f 2a 26 ee 3e
       1.1312636 1.0432856 0.6738295 0.46513492
0003e0 56 ee 87 3f 1c 59 8e 3f 13 27 83 3f e3 f3 ad 3e
       1.0619609 1.1120944 1.02463 0.33975133
0003f0 ca a8 56 3f 45 17 48 3f 30 d9 9d 3f 07 03 a4 3f
       0.838513 0.78160506 1.2331905 1.2813424

tabnet.encoder.initial_bn.bias f4 [768]
000000 b9 a5 f0 3e 65 b0 57 3f e4 b7 49 bd c2 03 a3 bf
       0.47001436 0.8425353 -0.049247637 -1.2735522
000010 97 d0 11 3e 8e 92 e2 3e fe d8 2d be b5 e8 3f be
       0.14239727 0.44252437 -0.16977307 -0.18741114
000020 2b e1 be 3e 4e 69 7d 3d 72 a3 15 3f 16 aa a8 3d
       0.37281165 0.061868005 0.5845252 0.08235566
000030 bf a1 de 3d 50 b9 05 3f e4 ec 0e 3f a4 6a b7 bd
       0.10870694 0.5223589 0.55830216 -0.08955887
000040 8e 57 b6 3e e4 c4 08 3e 5f 34 1b 3f 39 de 72 bd
       0.35613674 0.13356358 0.60626787 -0.05929396
000050 95 dc b7 3d b2 52 a9 bb 1a 28 96 bd e1 bf 09 be
       0.089776196 -0.0051673288 -0.073318675 -0.13452102
000060 cf 45 15 bf 8a 32 79 be bf 0e 33 3c c9 d4 ce 3e
       -0.58309644 -0.24335685 0.010928809 0.40396717
000070 82 fe 39 bc 6a 3d 54 3f 55 a5 b6 bd da a8 1b 3f
       -0.011352183 0.8290621 -0.08918253 0.6080452
000080 cd 2f c1 be a5 b9 b4 3f 96 5a 77 bf 7e fc 82 be
       -0.37731782 1.4119154 -0.966226 -0.2558326
000090 50 0c 1d 3c bd 7b 4b bd b9 f3 ff 3c 5d 7c 81 3e
       0.009585455 -0.049678553 0.031244146 0.25290194
0000a0 46 f9 43 be 30 03 e7 3d 38 45 82 be 80 39 de 3d
       -0.19138059 0.11279905 -0.25443435 0.10850811
0000b0 b3 eb 8c be c7 bd 9f be 9b 24 55 be 3f d0 0b be
       -0.27523574 -0.31199476 -0.20814745 -0.13653658
0000c0 46 f8 e5 3d 19 39 2d 3e 12 25 ed 3e 4e ab e1 3f
       0.11228995 0.16916312 0.46317345 1.7630403
0000d0 8a b8 0b be a1 db 40 be 91 40 cd 3e 07 79 8f bd
       -0.13644615 -0.18833782 0.40088323 -0.07005506
0000e0 75 93 96 3d 4e 63 27 3b 9e 88 bd 3e 0e e4 82 bc
       0.07352344 0.0025541368 0.37018293 -0.015977886
0000f0 72 9f c5 bb bd 9e b3 be bc ff 17 bf 30 59 5d bd
       -0.0060309703 -0.35082045 -0.59374595 -0.054040134
000100 f3 99 7b 3e 4b 9c b6 be c6 00 b0 be af d8 af bd
       0.24570446 -0.35666117 -0.3437559 -0.08586251
000110 7e 95 56 3f b9 e9 75 bd 4e 77 2e 3e 75 b7 5a 3e
       0.83821857 -0.06003735 0.17037699 0.21359046
000120 04 53 02 bd 2c 87 59 bd 90 50 a7 be 28 46 76 3c
       -0.03181745 -0.053107426 -0.32678652 0.015031375
000130 bb 86 34 be a8 b7 77 3f 07 ff 7b 3b dc d2 32 bd
       -0.1762952 0.9676461 0.0038451569 -0.043658122
000140 3a e4 91 3e b8 7e 26 bd 92 9e 72 3e 65 a9 f0 bd
       0.28494436 -0.040648192 0.23693302 -0.117510594
000150 0e 1a 72 bc fe 18 28 3f 75 d1 f1 bc 30 a4 40 3e
       -0.01477672 0.65663135 -0.029518822 0.18812633
000160 84 42 a6 3e 38 21 1f be 6d a1 24 3d c6 ee 1a 3d
       0.32472622 -0.15540016 0.04019301 0.03782537
000170 d9 ad bb bd 44 ac 53 bd 18 9b 7e bd 0e 24 4b 3e
       -0.09164018 -0.051677957 -0.062159628 0.19837973
000180 54 04 90 bd 78 05 a8 3e 2f 97 71 3e 95 7b b4 3f
       -0.070320755 0.32816672 0.23592828 1.4100214
000190 72 c7 6b 3e 4d 06 16 be 6c 92 9d be 1e 16 d9 bc
       0.23025301 -0.14650841 -0.30775774 -0.026499804
0001a0 8a ae 32 3e a9 a5 c5 bc ee 8d 29 bd cd 4e 1a 3d
       0.17449394 -0.024126844 -0.04139512 0.037672807
0001b0 c4 be 5d 3f e6 cb 88 bd 41 80 04 bf df 8f da 3e
       0.8661921 -0.066795155 -0.517582 0.4268789
0001c0 67 0c 93 bf cf a8 df be ce 9d 99 be 6f f3 87 3d
       -1.148816 -0.43683478 -0.30003208 0.06638228
0001d0 ee 1c ee bd c8 71 95 be ee e8 e8 3f 9f e0 dd be
       -0.11626612 -0.2918837 1.8196084 -0.43335435
0001e0 83 36 ae 3c e1 06 33 3e 9d 07 7f be 02 60 26 bf
       0.021266228 0.17483093 -0.24905248 -0.64990246
0001f0 b7 b9 23 bf 64 f1 99 bd 48 0f 35 3e 1d 25 61 3e
       -0.63955253 -0.07516745 0.1768161 0.21986814
000200 6e 67 78 3e e1 89 1c be 87 ee ab bd a3 44 a9 3c
       0.24258205 -0.15286972 -0.08395105 0.020662611
000210 e3 a8 8f 3c 3d 9e 0e 3b d2 a4 0a bf dd f1 62 3b
       0.017536586 0.0021761798 -0.54157746 0.0034629025
000220 44 07 23 be 72 f7 2d be 16 1f 6b 3e b9 22 3f 3e
       -0.1592074 -0.16988924 0.22961077 0.1866559
000230 b3 b4 51 3e 6d 4c db bd 17 e9 ce be 09 b7 cb bd
       0.20479088 -0.107079364 -0.40412208 -0.099470206
000240 5e 5d 06 be 56 a2 5e 3e a9 50 68 bf 7c 2a e0 3d
       -0.13121554 0.21741614 -0.9074808 0.10945603
000250 22 20 1d 3d db 53 6d 3e b2 66 68 3e 3e c7 a8 3d
       0.038360722 0.2317652 0.22695425 0.082411274
000260 92 c9 80 3e ed 4b 17 3f 03 5c 30 3e 2b 7a fc 3c
       0.25153786 0.5910023 0.172226 0.030819973
000270 cd b3 07 be f6 38 45 3d f2 7e ce be 93 b4 89 3c
       -0.13252182 0.048150025 -0.40331227 0.016809737
000280 ab 9f 11 3d 47 82 6c 3f 58 9f f1 bd e5 51 86 bf
       0.035552662 0.9238629 -0.117979705 -1.0493742
000290 b4 3e e7 3c c4 a3 b4 3e 72 11 ce be 72 e2 b3 3e
       0.028228141 0.35281193 -0.40247685 0.35133702
0002a0 87 c5 94 bf ea cf 7d 3f 39 d4 ce 3d ca d2 03 3e
       -1.162278 0.99145377 0.10099072 0.12873378
0002b0 4d 15 0d bc 97 df f6 be 09 33 1b 3f 56 ca 04 bf
       -0.0086110355 -0.4821746 0.6062475 -0.5187124
0002c0 be f5 d0 3d 97 38 4f be 24 8b 79 be d8 0e 92 be
       0.102031216 -0.20236431 -0.24369484 -0.2852695
0002d0 6c 7a 69 bf 04 8e 83 bf 50 0f cb bd 1f 5b 6c bf
       -0.91202426 -1.0277715 -0.0991503 -0.9232654
0002e0 2f 99 14 3e 50 be 73 bd c8 d1 88 bd 94 80 86 3e
       0.1451156 -0.059507668 -0.066806376 0.26269972
0002f0 7c 8c c7 bc 0e 54 32 bc 3e 4b 10 3e e9 7b d6 3e
       -0.02435898 -0.010884298 0.14091203 0.4189141
000300 b3 85 ca be 54 bd 5c be 2f 5a ac 3e 8f 64 c2 bf
       -0.3955513 -0.21556598 0.33662555 -1.5186938
000310 26 98 85 bf 89 9d 13 3e 53 ff 17 bd 80 36 f7 bd
       -1.0437057 0.14415564 -0.03710873 -0.12070942
000320 ec c3 2d 3f 66 19 19 3f 5b 61 6c bd b6 d2 cc be
       0.6787708 0.5980438 -0.057710033 -0.4000451
000330 45 b7 b9 3d 94 b6 b9 3d 8c 4d ea 3d 56 8b 94 3c
       0.09068159 0.09068027 0.11440572 0.018132847
000340 a7 68 a3 bf 6d 4e 4d 3e 03 1d 03 3e cd c9 c7 3f
       -1.2766312 0.20049448 0.12804036 1.560846
000350 b6 d3 a9 3d 5d a7 6a 3e fa 2c ef bb 86 52 88 3e
       0.08292334 0.22915407 -0.007299063 0.2662546
000360 56 44 53 3e 62 f6 b5 be c2 ec ab be 66 55 26 3f
       0.20631537 -0.35539538 -0.3357907 0.6497406
000370 42 88 04 bf e3 22 6d 3e d9 62 2f 3f cf e1 6a 3d
       -0.5177041 0.2315784 0.68510205 0.057344254
000380 90 e8 12 bf ea 55 5c 3f 0d b3 40 3f a1 59 29 3e
       -0.5738611 0.86068594 0.7527321 0.16538097
000390 37 4a 12 3e 0a ef 1d 3e 0b 3e 6b be da ec d5 3d
       0.14286123 0.15423217 -0.22972886 0.104455665
0003a0 e3 b0 4e bd b2 a1 17 3f 29 5f dc 3d 5a 5c 02 3e
       -0.05046166 0.592311 0.10760338 0.12730542
0003b0 3b cb cd bc a8 f6 3f be 7c 18 8a be 9f 2d 62 be
       -0.025121322 -0.18746436 -0.26971805 -0.22087716
0003c0 38 4c 87 be 4e 64 8e 3f 5a 07 a4 bc e3 36 56 be
       -0.26425338 1.112436 -0.020023037 -0.20919375
0003d0 df a0 96 bd b0 d7 8c 3e f2 26 69 be 2e bf 0c bd
       -0.073549025 0.27508307 -0.22768763 -0.03436201
0003e0 b9 4a 9c 3d 79 4a e9 3d 9a c8 5e 3e 18 28 18 3f
       0.0763144 0.11391158 0.21756211 0.5943618
0003f0 d3 3a 37 3e 31 58 89 be 93 0f 5c 3e 54 2a 9d 3e
       0.17893533 -0.26825097 0.21490316 0.30696356

tabnet.encoder.initial_bn.running_mean f4 [768]
000000 05 b0 c9 bc 22 0b 13 3f 21 cd 21 be cf 1c 80 3f
       -0.024620065 0.5743886 -0.15800907 1.0008792
000010 c5 cc 70 bf 49 3f 4c be 14 04 4e 3f 08 f1 ad 3e
       -0.94062454 -0.19946016 0.8047497 0.33972955
000020 97 c4 1b 3f 62 9a 0e be ee 82 50 bf 32 58 dc be
       0.6084685 -0.1392608 -0.8144978 -0.43036038
000030 78 e0 26 bf 1d f7 3b 3d 68 ef 2d 3f 85 30 b6 3e
       -0.6518626 0.045889962 0.6794343 0.35583892
000040 02 89 6f be 9e de 95 bd 74 e9 1b 3f 61 9a 19 3d
       -0.23392108 -0.073178515 0.60903096 0.037500743
000050 df b8 ae be 5e b7 90 be a6 40 d4 be 76 d9 93 3e
       -0.3412542 -0.28264898 -0.41455573 0.28876847
000060 d1 03 96 bf 31 54 26 3f a0 8c be 3e 24 b1 ec 3d
       -1.1719915 0.64972216 0.37216663 0.115572244
000070 c8 c0 4d 3f 2d 5e 36 bd be db 82 bd 7b e9 a2 be
       0.80372286 -0.044523407 -0.06389569 -0.31818756
000080 1d 82 07 3d d0 d8 00 bf d9 17 97 3d 45 05 44 3e
       0.03308307 -0.5033083 0.073775955 0.19142635
000090 65 8f 41 3d 3d 1b 20 be c7 78 b6 3d 55 97 34 bd
       0.047255892 -0.1563539 0.08909755 -0.044089634
0000a0 f3 23 47 3f 45 6a 29 bc db 92 c3 be e6 ba 0b bf
       0.7778923 -0.010340278 -0.3819798 -0.5458206
0000b0 66 33 74 3d da 3b 79 3f eb 2f 19 3d 04 07 61 be
       0.05961933 0.9735695 0.037399214 -0.21975332
0000c0 48 1d ca bd 31 fb 71 bf 4e f1 9e be fc 8d ef 3e
       -0.09868866 -0.9452391 -0.31043476 0.46788013
0000d0 75 7a 4e 3e ae ec e4 3e 86 8a 2f bf 9a 5e dc 3e
       0.20163901 0.44711822 -0.68570745 0.43040925
0000e0 40 18 92 be 5f a8 a8 3d da ec 26 bd 06 22 f0 bd
       -0.28534126 0.08235239 -0.040753223 -0.117252395
0000f0 85 74 b3 3b a9 8a 5d bd fb fa 34 3e e0 47 1c 3e
       0.0054765367 -0.054087315 0.17673866 0.15261793
000100 83 6b 07 be 39 26 aa 3e 52 69 83 be 88 4a ae be
       -0.13224606 0.33232287 -0.2566629 -0.34041238
000110 5d 18 a8 3d 6e 87 17 3e 70 2b 56 be 56 a1 08 3e
       0.08207772 0.14797756 -0.20915008 0.13342795
000120 30 c3 51 3c 47 8e f2 3c 32 a0 a8 3d a7 a0 95 3e
       0.012802884 0.029608859 0.0823368 0.2922413
000130 75 f7 91 be 01 1f 42 bf 1b 1b 5c bc 2d 61 39 bf
       -0.28509107 -0.7582856 -0.013434197 -0.72413903
000140 7d b3 80 bf df 0a 4b be 84 0e 87 3e c6 bc 09 3e
       -1.0054775 -0.19828366 0.26378262 0.13450918
000150 d8 2c a4 be 75 98 39 bd 0d e5 6d bc 24 4f 5e bf
       -0.32065463 -0.04531141 -0.014519942 -0.8683951
000160 39 92 79 3d c9 22 9f 3e cf aa 30 3d be 97 86 3e
       0.060930464 0.31081226 0.043131646 0.26287645
000170 05 4f e2 3e 86 72 d5 be 98 b9 11 3f 18 e5 24 bd
       0.44200912 -0.41688937 0.5692382 -0.040257543
000180 7b e1 44 3e ab da 4f be 8b 69 26 be 6b bc b3 3e
       0.19226639 -0.20298259 -0.16251199 0.3510469
000190 77 38 11 bf 31 7a 99 3e 03 e1 07 3e 0d 3c 5e 3e
       -0.56726784 0.29976037 0.13269429 0.21702595
0001a0 75 b6 0c bf c1 a8 1e bd c8 b4 22 3f 1a 4e 04 3e
       -0.5496591 -0.038735155 0.635571 0.12920418
0001b0 4c 35 21 be 87 5c 68 bf 1b 25 5a 3e 87 82 e7 be
       -0.15742987 -0.90766186 0.21303217 -0.45216772
0001c0 c1 5f bb be 5b 57 27 bc 6e da 18 3e 66 f4 d2 3d
       -0.36596492 -0.010213698 0.14927074 0.103005216
0001d0 aa b4 07 be 83 3c 47 bf 8f bd f6 3f f1 44 7a bd
       -0.13252512 -0.7782671 1.9276599 -0.061100904
0001e0 27 3c 8a be 55 6c 1b be e2 a0 c7 3c 02 c6 d8 3e
       -0.26999018 -0.15178044 0.024368707 0.42338568
0001f0 27 1e bd 3d a1 b3 0e be 5f 99 9d 3e e0 09 89 be
       0.09234267 -0.1393571 0.30781075 -0.26765347
000200 16 2c 66 3c c8 a4 55 be 80 ba a3 3d 09 bb f7 3f
       0.014048597 -0.2086364 0.079945564 1.9353954
000210 e1 b8 72 3e 16 88 8b be a0 19 02 3e 8e 22 81 3e
       0.23703338 -0.27252263 0.12705088 0.25221676
000220 bb 0f 6a 3e ce 49 c0 bd 2d d5 1b 3f 4c 6c 01 bf
       0.22857563 -0.09389077 0.60872155 -0.5055587
000230 c6 be 33 be 49 62 a1 be 73 90 27 3f 0e 98 bc be
       -0.17553243 -0.31520298 0.65454787 -0.3683476
000240 79 4f de be 85 b8 12 3f 51 ed 1b 3e 26 b9 aa bf
       -0.43420008 0.57312804 0.15227248 -1.3337753
000250 16 ae 8a be 57 00 21 3c f8 c3 42 be 8c ca 36 3f
       -0.27085942 0.009826741 -0.19020069 0.7140281
000260 16 57 ca 3e 7d be 1f be a4 c7 47 be e8 b9 05 3f
       0.39519566 -0.1560001 -0.1950975 0.52236795
000270 1e d8 a0 bc e0 55 4f be d9 47 4e 3e 3e aa 73 3e
       -0.019634303 -0.20247602 0.20144595 0.23795411
000280 a5 ae 01 3e f9 5a d8 3d e9 33 fd 3e 6f c5 3e 3e
       0.12664278 0.10564227 0.49453667 0.18630002
000290 32 81 21 bf c8 55 b8 be db 88 45 be 24 70 78 bc
       -0.6308776 -0.36002946 -0.19290487 -0.015163455
0002a0 b0 b3 49 be 18 15 9c bf e4 54 ea be ab 78 ff be
       -0.19697452 -1.2193937 -0.4576789 -0.4989675
0002b0 96 0b e7 be c1 ea d4 bc 33 7b f5 be 32 0c 20 3f
       -0.45126027 -0.025990846 -0.47945556 0.6251861
0002c0 ab 10 c3 3d f3 a4 14 3e 5f ff 59 3f 02 a1 3d 3e
       0.095246635 0.14516048 0.8515529 0.18518451
0002d0 cd 4a 8d 3f 8f ff c9 3e 70 52 6f be d0 a3 58 3c
       1.1038452 0.39452788 -0.23371291 0.01322265
0002e0 4b 46 98 3c 32 94 20 3e 26 d0 55 bf ce 6e e7 bd
       0.018588206 0.15681532 -0.83520734 -0.11300431
0002f0 41 55 bb 3d 88 0a df 3e 7b bf 2f bf fd d0 2e 3e
       0.0914712 0.43562722 -0.6865155 0.1707191
000300 89 2d e1 3d ca 34 c3 bc b5 3c c9 be bc 10 41 3f
       0.10995013 -0.023828883 -0.39304128 0.7541616
000310 6c 03 11 bf f1 01 14 3f 20 e1 9a 3e 25 7a a8 3d
       -0.56645846 0.5781546 0.30249882 0.08226422
000320 cf da cb 3e 60 97 95 be 2b cb d1 3e b0 b1 f7 3e
       0.39815375 -0.29217052 0.40975317 0.48377752
000330 f9 8a fa be 36 ab 1a bf 01 67 5b be 65 55 69 3e
       -0.48934153 -0.604175 -0.21426012 0.22786482
000340 ed 75 ae 3e fe 92 0b 3f 5f 68 81 be 0a c8 cb be
       0.34074345 0.5452117 -0.2527494 -0.39801055
000350 d4 67 25 be c7 07 13 3d 1f 1f b0 3e 49 11 7b 3c
       -0.16152889 0.03589609 0.34398744 0.015323945
000360 0b 4d 4d 3e 07 46 bd 3e df bd 14 bf 9a 5a 4b bf
       0.20048921 0.3696749 -0.5810222 -0.7943512
000370 c5 2d 4b be 3a 3c 69 be 64 2f dc bc 75 67 5f 3f
       -0.19841678 -0.22776881 -0.026878066 0.8726724
000380 6d b7 f2 be 60 03 a8 bd 2d 74 19 3e 4d 68 a8 bd
       -0.47405568 -0.08203769 0.14985724 -0.08223019
000390 fa 49 13 3f f8 ee d3 bd 75 3c 74 be 61 3b 6b be
       0.57534754 -0.10348314 -0.23851188 -0.2297187
0003a0 68 2a 00 3f d3 cf e9 be 0b 3e 40 3e 1e 59 ce be
       0.50064707 -0.4566637 0.18773668 -0.40302366
0003b0 82 93 83 be 7a 46 0e 3f ea 6f 19 3f c0 74 06 3f
       -0.25698477 0.5557629 0.5993639 0.52521896
0003c0 70 5b 72 bd d2 f5 91 be 42 0f 2b 3e d1 ea c9 be
       -0.059169233 -0.2850786 0.16705039 -0.39436963
0003d0 4a 32 a6 3e 51 78 d0 3c 55 1d 40 be c9 16 28 3f
       0.32460243 0.025447996 -0.1876119 0.6565977
0003e0 5c 99 a3 bd 05 e0 08 3d c3 70 d7 3e a7 de ef 3e
       -0.07988235 0.033416767 0.42078218 0.46849558
0003f0 f4 a9 0e 3e 1d ea c8 be 91 6d 84 3e 72 09 09 bf
       0.1393202 -0.39241114 0.25864843 -0.5353004

tabnet.encoder.initial_bn.running_var f4 [768]
000000 48 08 4f 3d 2b a0 83 3d a1 4c 3c 3d 18 62 43 3e
       0.050545007 0.06427034 0.045971517 0.19080389
000010 3d 58 80 3d db 00 ea 3d 17 a9 49 3d 09 75 4c 3d
       0.0626683 0.114259444 0.049233522 0.0499163
000020 2a ba 60 3d 0d c3 61 3d 23 28 0e 3d cd 8f 1e 3d
       0.05486504 0.055117656 0.034706246 0.038711358
000030 4e de 1a 3d 3c 86 f5 3c f7 ab 35 3d 9a ee 21 3d
       0.037809663 0.029971235 0.04435345 0.03953419
000040 7b 07 4e 3d 12 1a 22 3d 6d 19 3c 3d 6e 1a c8 3d
       0.050300103 0.039575644 0.045922685 0.09770666
000050 ac 6c 3d 3d 11 e3 97 3d dd f6 1a 3d e3 7d 18 3d
       0.046246216 0.07416356 0.037833083 0.03722943
000060 75 1e 4e 3d 74 e3 3e 3d 02 11 29 3d eb 0e 59 3d
       0.050322015 0.046603635 0.041275986 0.052992743
000070 cc 1a 34 3d 8d 74 37 3d 31 d7 6d 3d 4e 7f 4f 3d
       0.043970868 0.044788886 0.05806655 0.050658517
000080 9d 94 59 3d b2 c1 77 3d 37 6a a3 3d 1a 75 0f 3d
       0.053120244 0.060487457 0.07979243 0.035023786
000090 2a c7 1a 3d a0 2a 3b 3d 8e fe 6c 3d c0 7c 76 3d
       0.037787594 0.045694947 0.05785995 0.060177565
0000a0 45 d0 2f 3d 02 37 80 3d f9 8e 49 3d ef 99 16 3d
       0.04292323 0.06260492 0.049208615 0.036767896
0000b0 0c 7a 4e 3d 33 fa 4c 3d d9 f2 13 3d 67 47 47 3d
       0.05040936 0.050043296 0.03612027 0.04865208
0000c0 09 7d 61 3d 2a f7 94 3d 11 10 1f 3d 73 ed 36 3d
       0.055050883 0.07273705 0.03883368 0.044660043
0000d0 0c 20 97 3d 7e ca 58 3d 23 25 ff 3c 00 1e 8c 3d
       0.07379159 0.052927487 0.031145638 0.068416595
0000e0 c3 9d a3 3d 0a c9 38 3d b1 96 4b 3d fd 7e ed 3c
       0.07989075 0.0451136 0.049704257 0.028991217
0000f0 22 aa ec 3d 70 9a 0a 3d e3 4b 4f 3d 22 85 2c 3d
       0.11555888 0.03383869 0.05060948 0.042119153
000100 18 5a eb 3c 41 e0 83 3d f0 3a 84 3d 36 f5 53 3d
       0.028729483 0.064392574 0.06456554 0.051747523
000110 f3 ef 10 3d 39 8b 47 3d 27 0c 3d 3d 30 b8 50 3d
       0.035385083 0.048716757 0.046154168 0.050956905
000120 ef 5d 37 3d f7 53 02 3d 26 f9 61 3d 4b 22 1b 3d
       0.044767316 0.031818356 0.055169247 0.0378745
000130 f5 2b 82 3d 14 b5 29 3d 54 be cf 3d e7 ce 3f 3d
       0.063560404 0.041432455 0.10143724 0.046828177
000140 a3 f5 8e 3d 3f 46 73 3d b3 d9 48 3d 9d a6 66 3d
       0.06980445 0.059393164 0.04903574 0.05631124
000150 15 17 67 3d 06 35 26 3d 5b df 88 3d 0a 38 9f 3d
       0.056418497 0.04057791 0.06683227 0.077743605
000160 66 99 c1 3d a5 c0 12 3d 3a 78 51 3d 67 68 15 3d
       0.094530866 0.03582825 0.051140048 0.03647652
000170 e1 ce 83 3d eb 9e 25 3d bc e8 cd 3d 89 23 b2 3d
       0.064359434 0.04043476 0.10054156 0.08698184
000180 f7 2e 16 3d 32 58 8e 3d 95 74 32 3d 04 9b ed 3c
       0.036665883 0.06950416 0.043568213 0.029004581
000190 0e cb 30 3d 86 b9 1b 3d 77 5d 89 3d f9 3a 4b 3d
       0.043162398 0.038018726 0.0670728 0.049616788
0001a0 fc 86 cf 3d eb 7e 14 3d 35 d5 5d 3d 1e 60 f7 3c
       0.10133168 0.03625385 0.05415841 0.0301972
0001b0 c3 08 9a 3d 11 16 64 3d 03 8f 44 3d 82 50 79 3d
       0.075212024 0.055685107 0.04798795 0.060867794
0001c0 f1 a9 6f 3d e3 19 dd 3c 7f 07 2f 3d 5e a7 dd 3c
       0.058511678 0.026989883 0.04273176 0.027057346
0001d0 1b 83 72 3d de 82 52 3d 97 6a 8d 3d a8 85 1c 3d
       0.059207063 0.051394336 0.06905096 0.038213402
0001e0 75 f3 3c 3d 75 5e 88 3d c3 99 63 3d 97 26 88 3d
       0.046130616 0.06658641 0.05556656 0.066479854
0001f0 57 a9 e2 3c 36 e2 dc 3d d2 b4 38 3d b2 ae 16 3d
       0.027668638 0.10785334 0.04509432 0.036787696
000200 89 34 4e 3d 86 e2 58 3d 85 a0 21 3d 0a 6a b9 3e
       0.05034307 0.052950405 0.039459724 0.36213714
000210 82 6d 15 3d fa 26 97 3d c6 a2 11 3d 69 6a 66 3d
       0.036481388 0.07380481 0.035555623 0.056253824
000220 de d0 c2 3c d9 e9 45 3d 2f 93 63 3d 41 df a9 3d
       0.023781236 0.048318718 0.055560287 0.082945354
000230 10 9b 20 3d d2 29 19 3d 61 03 f4 3d d2 0b 48 3d
       0.03921038 0.0373934 0.11914707 0.048839398
000240 49 72 c7 3c 9b 76 92 3d c6 d9 64 3d a3 50 ba 3d
       0.024346488 0.071515284 0.055871747 0.090974115
000250 b2 db e5 3c c1 10 12 3d 5a ac 27 3d c8 9d 49 3d
       0.02805886 0.03566051 0.04093585 0.049222738
000260 f2 90 20 3d 6d 55 a4 3d f0 d7 5a 3d 6b 70 a4 3d
       0.03920073 0.08024106 0.05342859 0.080292545
000270 06 3a 25 3d cb c2 2b 3d 2e 2d 34 3d f4 0d ea 3c
       0.04033854 0.041933816 0.0439884 0.028571106
000280 f6 65 34 3d fa 97 38 3d 89 e9 83 3d c5 1a 55 3d
       0.04404255 0.04506681 0.06441028 0.052027483
000290 aa e6 3d 3d da b7 1d 3d 12 88 60 3d d0 9c 4c 3d
       0.046362557 0.038505413 0.054817267 0.049954236
0002a0 80 04 1c 3d 91 a6 df 3d 20 29 f4 3c c2 01 4b 3d
       0.03809023 0.10920442 0.029804766 0.049562223
0002b0 5c 97 06 3d fd 7f 95 3d 1b b3 3e 3d ca aa 31 3d
       0.03285919 0.072998025 0.046557527 0.043375768
0002c0 30 1b 8c 3d 5a 8a 3a 3e 2c bc 5c 3d 3b 25 67 3d
       0.06841123 0.1821684 0.053890392 0.05643199
0002d0 4c bf f4 3e 0b 60 88 3d 08 90 20 3d 1a 35 27 3d
       0.47802198 0.06658944 0.03919986 0.040822126
0002e0 e9 28 66 3d 3b 95 49 3d 90 7f 1d 3d 63 b2 01 3d
       0.05619136 0.049214583 0.03845173 0.031664263
0002f0 db 69 75 3d 3e 11 96 3d be 0e 5e 3d cd bd 24 3d
       0.059915405 0.073275074 0.054213278 0.04022007
000300 32 f0 61 3d 26 ff 43 3d 84 8b 37 3d 4e 32 14 3e
       0.05516071 0.04785075 0.044810787 0.14472315
000310 2b 87 6e 3d e0 21 39 3d 91 c9 75 3d 29 a3 1d 3d
       0.058234375 0.04519832 0.06000668 0.03848568
000320 5a 87 97 3d 52 dc cf 3d fe f2 2d 3d 66 93 69 3d
       0.07398863 0.10149445 0.042468064 0.057025336
000330 90 ce c8 3c e7 df db 3c a3 ec 82 3d ef dc 78 3d
       0.02451256 0.026840163 0.06392791 0.060757574
000340 64 6a 88 3d e3 40 ea 3c 55 67 59 3d 6b 74 7d 3d
       0.066609174 0.028595394 0.05307706 0.061878603
000350 23 1d b1 3d cf 0b 1c 3d a8 3e 22 3d 0b 58 27 3d
       0.086481355 0.0380972 0.039610535 0.04085545
000360 c4 05 1a 3d b9 e9 03 3d f1 f7 4e 3d 50 ac ef 3d
       0.037603155 0.032205317 0.050529424 0.11702788
000370 98 70 36 3d c8 05 4a 3d 0a 39 1a 3d 78 05 81 3d
       0.04454097 0.04932192 0.037652053 0.06299871
000380 c9 a4 7b 3d d7 da 08 3e e5 e5 12 3d 97 0f a6 3d
       0.06143645 0.13364731 0.035863776 0.08108442
000390 ea 46 85 3d 94 8c 38 3d 22 da 6a 3d 4f 8d f6 3c
       0.065076664 0.04505594 0.057336934 0.030096678
0003a0 77 5f 96 3d a9 0e 06 3e 72 61 1f 3d 33 83 73 3d
       0.07342427 0.1309153 0.03891129 0.059451293
0003b0 94 a9 1c 3d 43 55 76 3d 0e b4 6c 3d cc dd 6d 3d
       0.03824766 0.060139906 0.0577889 0.05807285
0003c0 e2 23 61 3d e4 8c 3e 3d 23 22 5b 3d be 12 82 3d
       0.05496586 0.046521083 0.053499352 0.06351231
0003d0 4c 87 63 3d 93 00 80 3d 69 a0 3a 3d 23 e4 06 3d
       0.05554895 0.062501095 0.045563135 0.032932412
0003e0 b6 e6 fb 3c f9 21 09 3d 44 63 84 3d 13 9a 8b 3d
       0.03074966 0.033479664 0.06464246 0.06816497
0003f0 c1 d0 41 3d 5e 6a 76 3d 2d 5e 93 3d 0f bb 36 3d
       0.047318224 0.060160033 0.07195697 0.044611987
